nengo_tutorials/mnist_params.npz (npz, 803120 bytes, 5 tensors)

arr_0 f4 [10, 21632]
00000000: 6a5f cdbb 04f6 36bc 27a2 d3bb f3a4 de3b
00000010: d44c 223c b848 41bb 5232 603c 31f7 273c
00000020: 5203 37bc f405 d23b 986f 043c ae2b 1bbc
00000030: b6c2 133b 83ad 823c 9501 2a3c d6db 5ab8
00000040: 27ea f83b cfbf bcbc 0e5e 473c 329e 4cbc
00000050: b734 6abc 1efb d53a 6622 32bd 6863 143b
00000060: bed9 f8bc 7fdf 2cbc fdf3 36bc a161 b5bc
00000070: fe0d 0c3c b30d c73b 886d 6c3b a7d3 98bb
00000080: 710a 863c a41b 83bb 9a9d c0bc e2e0 c03c
00000090: 4d11 843b 7a30 883c edd6 08bb 27ad e63c
000000a0: 6594 293c fe59 863c 9709 fe3a 19a6 2abc
000000b0: 3ade aa3c 2087 0cba c398 963c 142d 52bb
000000c0: 702a 03bc 7944 b5bc 27ff d63c 044b 36bc
000000d0: ee48 f6bb 7e12 e33a 5fcc 93bc 2295 023c
000000e0: d5c7 c8bc 92e4 6bbb b775 3abc cf43 c9bc
000000f0: da7d d9bb e900 7abc a7a0 81bc 473e 98bc
00000100: c127 88bc 231f 293c 77a3 54bc d8dd 173c
00000110: 908d 5fbc 4ac6 b53b 2711 5abc b754 82bc
00000120: 1fd9 603a f40b 3f3c 1bc7 cd3b 9c68 1bbb
00000130: 3881 46bc 8bfb 4e3c 0d0a 56bc 3da8 0139
00000140: 9766 4fbb bd58 f4bb 2da5 e6bb 6c2a 823c
00000150: 2ddb 05ba 2bae 4dbc 5ca2 babc 4a4b 553c
00000160: 0832 92bc 9c03 bf3c 1ab8 cabb d4ab 31bd
00000170: 36d8 1e3b 1eb2 c53b 45c4 37bc 521d 1cba
00000180: 2f7c bebc 3b07 9fbb 67aa 5c3c 057a b73a
00000190: 395f b13b 1dd3 d5bc 0f7c 2ebc ba74 96bc
000001a0: 29c0 de3a 3dde b73b 04ba 2bbb 82a6 cd3b
000001b0: bc25 d33a 1c0b 1d3c 6273 f13b 0304 603b
000001c0: 0413 46bc 1e90 dfbc 70a2 b8bc 92d8 6fbc
000001d0: e98e a9bc d126 6cbb 85d2 b3bc 8e96 013c
000001e0: 8bbf 29bd 4b61 89ba 54fa 183c 6009 53bd
000001f0: a0f1 7ebc ff10 abbb 2603 353c 2fab c33b
00000200: d0d1 bfbc 82fd 15bd 1a56 963c 73cb 6cbc
00000210: 7c0d b4bb 6ac6 34bd cedf c53b 2a27 58bd
00000220: b802 abbc 56c9 c7bc 57ae 6aba 1105 963c
00000230: a443 91bc 914b 81bc 3924 3d3c 63b1 3fbd
00000240: f5ed 60bc 8ed4 34bd 2bd7 bbbc 17be 28bc
00000250: 4fc0 cdbc c08f f9bb 7ed5 dbbc d23f 2ebb
00000260: 7ca2 92bc bf83 9a3b 043b 993b cf04 90bd
00000270: 5c87 dcbb 8d0d 85bc d6de 223c 1670 7c3b
00000280: fba7 4dbc f93c 103b 1350 4bbc 5d4c 8f3c
00000290: 95eb f2b9 78c0 f5bc 75c0 1d3b e089 b2bc
000002a0: a57a 773c 26bb 50bc 067f a2bc 95d5 53bc
000002b0: 5398 8abc c43d 903b d45b 26bc bae8 ba3a
000002c0: c745 9d3b bd62 7abc 730c 6ebc c825 803c
000002d0: a3a1 1ebc 3414 8f3b bf4a 24bd 80ee 1d3c
000002e0: 7ed7 2dbd c979 0ebd 72ae 3dbc a2b7 5abc
000002f0: d6ca 883c b42f 673b 00ef daba f985 f0bc
00000300: ca3c c3bc 14af 33bd 3751 4ebd a6d7 0fbd
00000310: f174 64bb 4dc2 00bd 3728 2bbc 89a9 8bbd
00000320: b231 d6bb c6fc b53c ce42 0abd edd1 3e3c
00000330: 8965 9bbc 8469 323c d8eb 7fbb d0a8 18bd
00000340: d05d ddbb 1b00 6bbd 1594 1cbd f3fb 913b
00000350: 4b21 13bb a2d3 a7bc f788 2ebd ae0c 853c
00000360: fc35 e1bc 761b 323b 032a c43b ae34 69bd
00000370: 2f43 1eba 2896 07bc 4833 51bc 4f3f c5bc
00000380: 8a64 c0bc 380f 33bd 80a4 5dbd 50cc 05bd
00000390: 059d 8bbc 1ed7 b6bd 46d8 3fbc dc6d a8bd
000003a0: 163d 973a e3ad 2bbd 6c09 4fbb 2dd9 03bc
000003b0: bccb 5dbc ea97 83bc 0eb0 953b 5201 7fbd
000003c0: 8593 51bc 661a 4abd 21f6 92bd 7076 d03a
000003d0: 5bf8 133b 5058 f6ba d79f 10bd da94 c4bc
000003e0: be0c 85bc 18e6 eebc e912 18bc c2b2 96bd
000003f0: 3dc4 a9bc e366 9cbc 3623 433b 00dd fbbc
-0.0062674778 -0.011167053 -0.006458539 0.006794566 0.009906013 -0.0029492807 0.013683872 0.010251806
-0.011170225 0.006409401 0.008083247 -0.009470863 0.0022546477 0.015951877 0.010376354 -5.217999e-05
0.0075962725 -0.02304068 0.0121684205 -0.012488889 -0.014294795 0.0016325449 -0.043489836 0.0022642259
-0.030377265 -0.0105513325 -0.01116657 -0.02214128 0.008548258 0.006074631 0.0036076028 -0.004663903
0.0163624 -0.0040010978 -0.02351265 0.023544732 0.0040303827 0.016624678 -0.002088006 0.028158737
0.010350321 0.016400333 0.001938152 -0.010415577 0.020857919 -0.00053607114 0.01838339 -0.0032070326
-0.008005723 -0.022127377 0.026244713 -0.011126284 -0.007516018 0.0017324237 -0.018041788 0.007970126
-0.02450935 -0.0035994393 -0.0113806045 -0.024568466 -0.006637317 -0.015259006 -0.015823675 -0.018584384
-0.016620519 0.010322365 -0.012978426 0.0092692 -0.013644591 0.0055473195 -0.0133097535 -0.015909536
0.00085772754 0.011660565 0.0062798387 -0.0023713475 -0.012115769 0.012633215 -0.01306392 0.00012365072
-0.0031646842 -0.0074568675 -0.0070387335 0.015889369 -0.0005106207 -0.012553732 -0.022782497 0.013018439
-0.017846122 0.02331715 -0.0061864974 -0.04337676 0.0024237758 0.006033196 -0.011216228 -0.0005955297
-0.023252575 -0.004853157 0.013468361 0.0013998157 0.0054129628 -0.026101643 -0.010649695 -0.018366206
0.0016994524 0.0056112097 -0.0026203403 0.006275953 0.0016109268 0.009585168 0.007368491 0.0034182079
-0.012089495 -0.0272904 -0.022538394 -0.014639037 -0.020698028 -0.0036033879 -0.02195097 0.00790943
-0.041442435 -0.0010481266 0.009337027 -0.051522613 -0.015560538 -0.005220532 0.011048114 0.0059713344
-0.023415476 -0.036618717 0.018351603 -0.014452803 -0.0054947715 -0.044134535 0.0060386425 -0.052771725
-0.02087532 -0.024387997 -0.000895237 0.018312963 -0.017732449 -0.015783103 0.011544281 -0.04680003
-0.013728608 -0.04414802 -0.022929749 -0.010299227 -0.025116114 -0.0076160133 -0.0268352 -0.0026588333
-0.017899744 0.0047154124 0.0046762247 -0.07032167 -0.0067300033 -0.016241813 0.009940824 0.0038518957
-0.012552257 0.0022008999 -0.012409228 0.017492468 -0.0004633336 -0.029999003 0.0024071012 -0.02179426
0.015104924 -0.012739932 -0.01983596 -0.01292934 -0.016918337 0.0044018943 -0.0101537295 0.0014260032
0.004799578 -0.01528233 -0.014529335 0.015643016 -0.009682092 0.004366422 -0.040110346 0.009639382
-0.042441837 -0.034784112 -0.011577236 -0.013349446 0.016698282 0.0035276236 -0.0016703308 -0.029360758
-0.023832697 -0.04386814 -0.05037042 -0.035117768 -0.0034859742 -0.0314353 -0.0104466 -0.06819446
-0.006536686 0.022215258 -0.033755116 0.01164673 -0.018969314 0.010889415 -0.0039050486 -0.037270367
-0.006755568 -0.057373147 -0.03822716 0.0044550835 -0.0022450264 -0.020486657 -0.04261109 0.016241398
-0.027491562 0.0027177013 0.0059864535 -0.056935005 -0.0006037233 -0.008275546 -0.012768574 -0.02407804
-0.02348544 -0.043715686 -0.054111958 -0.03266555 -0.017042646 -0.08927749 -0.011709278 -0.08224079
0.0011538591 -0.04191388 -0.003159131 -0.008047384 -0.013537344 -0.01606365 0.0045681065 -0.06225712
-0.012791519 -0.04934158 -0.071758516 0.0015904438 0.0022578451 -0.001879463 -0.035308685 -0.02399676
-0.016241428 -0.029162452 -0.009281852 -0.07358314 -0.020723457 -0.019092029 0.0029775626 -0.03074503

arr_1 f4 [3, 3, 1, 32]
00000000: 3248 963d 402c 19bd 7923 6bbc a2ae d2bd
00000010: 016a b6bc 8f75 9fbd 209c 35b9 2ae7 4e3c
00000020: 545f 983b b04c b5bc aff2 a8bd 44c2 0abd
00000030: 4de2 d1bd 133e 943c 51ed 32bd 024d 7e3c
00000040: 47a2 3fbe 03ad d1bd 4388 1ebb ce68 743b
00000050: 1dbd 9cbc 7c62 2ebd 0703 ffbd 4530 1abe
00000060: fe50 0cbe 82ab 43bb 203f 75b9 5568 bebc
00000070: 0f04 ecbd 7ad8 64bd 6362 1f3d 0a11 f9bd
00000080: 2fe0 c2bd cf31 eebd 2f2c 923d bee8 a53d
00000090: 017d b53d 58fa cbbd 6e57 b2bd 8b87 cd3d
000000a0: c769 aabd aeed 48be 6484 c7bc 6ca4 4abe
000000b0: 35f0 333d cc63 7ebd 0997 8cbd 3c40 89be
000000c0: 7b1b c1ba 1da7 46bb 6a0a d2bd 9b21 523d
000000d0: 9c38 01be 9c97 c2bd 94b2 c6bc e2b7 f4ba
000000e0: 32b1 153b b6d0 4dbc a2bf e5bc dd84 a6bd
000000f0: 62fb d0bd 215e 4dbd fe72 92bd 0d06 1e3d
00000100: f7da 26bd dc0f 9dbc 2c46 63bd aaf8 0abd
00000110: f2dc f1bd 2239 98bd 290b cfba 5d87 9dbd
00000120: 86e0 01bd 2bf7 bebd b584 ddbd 8e13 003d
00000130: 7710 ccbc 883a 37bd c64c a13c 7aa0 813d
00000140: 9b45 0ebc 1175 93bd ad4c adbc 30bd c73b
00000150: 1890 08bd e736 21be 0c9a 393d 17cc 06bd
00000160: 77cd e3bc 509f c83b 9dc0 3bbd 4dc4 9cbd
00000170: 1057 08bd 811e 7c3d e0f8 35be eec9 20bd
00000180: 4caf 17be bbd6 563c d28a c6bd d846 89bc
00000190: 4fa1 5abe 42f2 66bc 22c4 3abe 9e32 64bd
000001a0: 4a8a 7d3d 846e d0bc 4ac7 37be 5145 08be
000001b0: 3d7f 913d c2ca 0dbe 387b 853d 80c2 d3bd
000001c0: 0e02 6bbd b6bc ba3d 02e4 70bc d46b 3fbd
000001d0: c618 953c 26c2 d3bd d270 15be 2055 2e3d
000001e0: e7f0 c53d 83d1 cbbc 95cb c7bd 673a b53d
000001f0: b57d 903d a38c 87be 8238 a53c e32b 4bbc
00000200: cad8 aebd 968e 6abd 2e40 d9bd 4a2b 0fbd
00000210: 5a57 46be b0b5 863d c94b 26be e0c4 18bd
00000220: a5a2 973c cb71 3c3d b50f d33c a97d 85bc
00000230: 463a d5bd 8948 df3d 7090 b7bb f645 53bd
00000240: e8c4 efbd 5e84 053c 3943 adbd 00ee 5a3d
00000250: 2704 6ebe e2e6 b83d f036 fbbc 0fa6 103d
00000260: 9f84 433d 90d9 0a3d 74bd aebc f385 adbd
00000270: b556 c2bd f0f2 283d eb5a f0bd 0183 dbbc
00000280: 08c3 efbb 4786 313d e748 153d 66f5 0abe
00000290: 1e0a 7c3d 078e c7bc e2f2 a3bd 752b b7bd
000002a0: b887 0dbe 3594 b4bd df7e e73d eb4e 8bbc
000002b0: fe2c d1bd d194 38be c49d 0ebe 8987 8ebe
000002c0: 35cc 28bc c4bc 70be 7923 10bd 0e4c 2bbd
000002d0: a885 7b3d 777f 14bd 12a2 abbd 311f 1abe
000002e0: 3e62 693d 30f5 5bbd e04d 05bd bdc4 5dbd
000002f0: ceb7 12bd 1056 ebbc 4cdf 56bd 3ea3 11bd
00000300: ca5d 84bd cf05 20be 5db1 e63d fb67 8aba
00000310: 1732 f4bd 4ec1 adbd 5f80 a9bd 01ac 9bbd
00000320: 994f 0bbd 0ced 73be df46 02be bc0e 76bb
00000330: d5d6 17be ec99 58be eb43 93bd e990 693b
00000340: 8267 18be 9a0c 86bd 1e08 49bd 9ebd 6bbe
00000350: 07b1 2fbd 8154 673d 33bf 7e3d a207 073c
00000360: adc7 a0bd 74c9 a4bd db0d d7bc 70ae 98bd
00000370: 9103 70bc c686 dfbc ade5 2dbd 0851 59bd
00000380: 7bad 7ebb 2c30 30bd 98ff 84bd fd9b 80be
00000390: f207 93be 90a0 8a3d 4896 d1bd e1f9 81bc
000003a0: 3287 9fbd b9bd 953d 8ea3 1bbd 931c 84ba
000003b0: ebdd 6cbd db82 7abd d3e0 03bd 0607 febd
000003c0: 8a2a 22bc a771 9abe 1e18 22be 05b4 32bd
000003d0: 8038 3d3d d61f 91be 3822 a93c d00e 02bd
000003e0: 0683 0bbc f47b f43d a5a3 6dba e46c 2bbe
000003f0: 4640 06be 7767 7ebd 6f6e 14bd 27d7 853d
0.07337989 -0.037395716 -0.014351719 -0.10287215 -0.022267343 -0.077860944 -0.00017319666 0.012628356
0.004650036 -0.022131294 -0.08249413 -0.033876672 -0.102482416 0.018096006 -0.043683354 0.01552129
-0.18714248 -0.102380775 -0.0024190105 0.0037293914 -0.019133145 -0.04257439 -0.12451749 -0.15057476
-0.13702771 -0.0029856865 -0.00023388537 -0.023243109 -0.115242116 -0.05587051 0.03891219 -0.12161453
-0.09515416 -0.11630594 0.071373336 0.08101033 0.08861733 -0.09959859 -0.08708082 0.100356184
-0.08320957 -0.19621918 -0.024355121 -0.19789284 0.04393025 -0.062106892 -0.06864745 -0.2680682
-0.0014732921 -0.003031201 -0.102558926 0.05130158 -0.12619251 -0.095015734 -0.024255075 -0.0018670524
0.0022841212 -0.012561968 -0.02804548 -0.081308104 -0.102041975 -0.050138596 -0.07150839 0.03857999
-0.040736165 -0.019172601 -0.055486843 -0.03392855 -0.1180972 -0.07432772 -0.0015796173 -0.07691834
-0.031708263 -0.09324487 -0.108163275 0.03126865 -0.024910195 -0.044733554 0.019689929 0.063294366
-0.008683587 -0.07200063 -0.021154726 0.006095551 -0.033340544 -0.157436 0.045312926 -0.03290948
-0.027807934 0.006122507 -0.045837987 -0.07654629 -0.033286154 0.06155253 -0.1777072 -0.039255075
-0.14812964 0.013112719 -0.096944466 -0.016757414 -0.21350597 -0.014095845 -0.18238881 -0.055712335
0.06189946 -0.025443323 -0.17947116 -0.13307692 0.07104347 -0.13846877 0.06517643 -0.10339832
-0.057375006 0.09118025 -0.014702799 -0.046733692 0.01820029 -0.10339765 -0.14593819 0.04256165
0.09665089 -0.024880176 -0.09755627 0.0884903 0.07055227 -0.26474485 0.020168547 -0.0124006
-0.08537443 -0.057264887 -0.106079444 -0.034953393 -0.1936926 0.06577623 -0.16239847 -0.03729713
0.018510172 0.04600696 0.025764326 -0.016295271 -0.104115054 0.10902507 -0.005601935 -0.05158039
-0.11707479 0.008149235 -0.08460087 0.05344963 -0.23243771 0.090284124 -0.030665845 0.035314616
0.0477339 0.03389889 -0.021330573 -0.084728144 -0.09489194 0.04124731 -0.11736091 -0.026795866
-0.0073169507 0.043340947 0.03644648 -0.13570175 0.061533086 -0.024359716 -0.080053106 -0.08943836
-0.13821304 -0.08817331 0.113034956 -0.017005404 -0.1021366 -0.18025519 -0.1392737 -0.2783778
-0.010302593 -0.23509508 -0.03519008 -0.04182058 0.06140676 -0.036254372 -0.08380522 -0.15050961
0.056978457 -0.053700626 -0.03254497 -0.054142702 -0.03581982 -0.028727561 -0.052459046 -0.03555607
-0.06463201 -0.15627216 0.11264298 -0.0010559553 -0.119236164 -0.084841356 -0.08276438 -0.076011665
-0.034011457 -0.23820895 -0.12722348 -0.0037545403 -0.14828046 -0.21152467 -0.07190689 0.0035639352
-0.14883235 -0.06545372 -0.049080007 -0.23021552 -0.042893436 0.056477074 0.06219406 0.008241566
-0.07850585 -0.08046237 -0.026251724 -0.07455146 -0.014649288 -0.027285945 -0.042455364 -0.053055793
-0.0038860727 -0.04301469 -0.06494063 -0.2511901 -0.28717 0.06768906 -0.10233742 -0.015866222
-0.07789458 0.07311577 -0.037997775 -0.0010079317 -0.057828825 -0.06115995 -0.03219683 -0.12403683
-0.009897837 -0.30164835 -0.15829512 -0.04362871 0.04619646 -0.283446 0.0206462 -0.031752408
-0.008515125 0.11937705 -0.00090652175 -0.16740757 -0.13110456 -0.06211039 -0.03623813 0.06535178

arr_2 f4 [32, 1]
00000000: 3290 56bd 241b f5bd 7be9 99bb 4e4f 95bb
00000010: df40 33bc 5831 34bb 54e8 30be 1f9e 5abc
00000020: 1320 17be 1ce1 72bc f520 4bbb 3290 8abd
00000030: b5b0 b73b ff45 82bd ac39 dfbc dcdc 49ba
00000040: b9e1 dcbd 965f 36ba a542 11be cff7 8fbd
00000050: d0f3 8fba 3e52 3dbb bfa9 2b3d 942e 99bd
00000060: 7e16 8a3b 51a5 8bbd 7d10 d4bd 541e 3bbb
00000070: bbfe 84bd c315 4ebd 6ddc 5fbd f5cd 0abb
-0.05238361 -0.11968067 -0.0046970225 -0.004556573 -0.010940759 -0.0027495231 -0.17276126 -0.013343363
-0.14758329 -0.014824178 -0.0030994986 -0.06765784 0.005605782 -0.06361007 -0.02724918 -0.0007700452
-0.10785241 -0.00069569924 -0.14185579 -0.070296876 -0.0010982696 -0.0028888131 0.04190993 -0.07479587
0.004214107 -0.06818641 -0.103547074 -0.0028552013 -0.064938985 -0.050313722 -0.054653574 -0.002117989

arr_3 f4 [10, 1]
00000000: 810d a5bd a775 5f3b 41cf a6bc 3b8d 2b3e
00000010: 5935 893c 6cba b7bb df96 93bd 9acb b7bc
00000020: 31f1 01bd 79a5 11bd
-0.08059216 0.0034097226 -0.020362498 0.16753094 0.016749071 -0.00560694 -0.07206511 -0.022435952
-0.03172416 -0.035558198

arr_4 f4 [21632]
00000000: 0000 803f 0000 803f 0000 803f 0000 803f
00000010: 0000 803f 0000 803f 0000 803f 0000 803f
00000020: 0000 803f 0000 803f 0000 803f 0000 803f
00000030: 0000 803f 0000 803f 0000 803f 0000 803f
00000040: 0000 803f 0000 803f 0000 803f 0000 803f
00000050: 0000 803f 0000 803f 0000 803f 0000 803f
00000060: 0000 803f 0000 803f 0000 803f 0000 803f
00000070: 0000 803f 0000 803f 0000 803f 0000 803f
00000080: 0000 803f 0000 803f 0000 803f 0000 803f
00000090: 0000 803f 0000 803f 0000 803f 0000 803f
000000a0: 0000 803f 0000 803f 0000 803f 0000 803f
000000b0: 0000 803f 0000 803f 0000 803f 0000 803f
000000c0: 0000 803f 0000 803f 0000 803f 0000 803f
000000d0: 0000 803f 0000 803f 0000 803f 0000 803f
000000e0: 0000 803f 0000 803f 0000 803f 0000 803f
000000f0: 0000 803f 0000 803f 0000 803f 0000 803f
00000100: 0000 803f 0000 803f 0000 803f 0000 803f
00000110: 0000 803f 0000 803f 0000 803f 0000 803f
00000120: 0000 803f 0000 803f 0000 803f 0000 803f
00000130: 0000 803f 0000 803f 0000 803f 0000 803f
00000140: 0000 803f 0000 803f 0000 803f 0000 803f
00000150: 0000 803f 0000 803f 0000 803f 0000 803f
00000160: 0000 803f 0000 803f 0000 803f 0000 803f
00000170: 0000 803f 0000 803f 0000 803f 0000 803f
00000180: 0000 803f 0000 803f 0000 803f 0000 803f
00000190: 0000 803f 0000 803f 0000 803f 0000 803f
000001a0: 0000 803f 0000 803f 0000 803f 0000 803f
000001b0: 0000 803f 0000 803f 0000 803f 0000 803f
000001c0: 0000 803f 0000 803f 0000 803f 0000 803f
000001d0: 0000 803f 0000 803f 0000 803f 0000 803f
000001e0: 0000 803f 0000 803f 0000 803f 0000 803f
000001f0: 0000 803f 0000 803f 0000 803f 0000 803f
00000200: 0000 803f 0000 803f 0000 803f 0000 803f
00000210: 0000 803f 0000 803f 0000 803f 0000 803f
00000220: 0000 803f 0000 803f 0000 803f 0000 803f
00000230: 0000 803f 0000 803f 0000 803f 0000 803f
00000240: 0000 803f 0000 803f 0000 803f 0000 803f
00000250: 0000 803f 0000 803f 0000 803f 0000 803f
00000260: 0000 803f 0000 803f 0000 803f 0000 803f
00000270: 0000 803f 0000 803f 0000 803f 0000 803f
00000280: 0000 803f 0000 803f 0000 803f 0000 803f
00000290: 0000 803f 0000 803f 0000 803f 0000 803f
000002a0: 0000 803f 0000 803f 0000 803f 0000 803f
000002b0: 0000 803f 0000 803f 0000 803f 0000 803f
000002c0: 0000 803f 0000 803f 0000 803f 0000 803f
000002d0: 0000 803f 0000 803f 0000 803f 0000 803f
000002e0: 0000 803f 0000 803f 0000 803f 0000 803f
000002f0: 0000 803f 0000 803f 0000 803f 0000 803f
00000300: 0000 803f 0000 803f 0000 803f 0000 803f
00000310: 0000 803f 0000 803f 0000 803f 0000 803f
00000320: 0000 803f 0000 803f 0000 803f 0000 803f
00000330: 0000 803f 0000 803f 0000 803f 0000 803f
00000340: 0000 803f 0000 803f 0000 803f 0000 803f
00000350: 0000 803f 0000 803f 0000 803f 0000 803f
00000360: 0000 803f 0000 803f 0000 803f 0000 803f
00000370: 0000 803f 0000 803f 0000 803f 0000 803f
00000380: 0000 803f 0000 803f 0000 803f 0000 803f
00000390: 0000 803f 0000 803f 0000 803f 0000 803f
000003a0: 0000 803f 0000 803f 0000 803f 0000 803f
000003b0: 0000 803f 0000 803f 0000 803f 0000 803f
000003c0: 0000 803f 0000 803f 0000 803f 0000 803f
000003d0: 0000 803f 0000 803f 0000 803f 0000 803f
000003e0: 0000 803f 0000 803f 0000 803f 0000 803f
000003f0: 0000 803f 0000 803f 0000 803f 0000 803f
1.0 1.0 1.0 1.0 1.0 1.0 1.0 1.0
1.0 1.0 1.0 1.0 1.0 1.0 1.0 1.0
1.0 1.0 1.0 1.0 1.0 1.0 1.0 1.0
1.0 1.0 1.0 1.0 1.0 1.0 1.0 1.0
1.0 1.0 1.0 1.0 1.0 1.0 1.0 1.0
1.0 1.0 1.0 1.0 1.0 1.0 1.0 1.0
1.0 1.0 1.0 1.0 1.0 1.0 1.0 1.0
1.0 1.0 1.0 1.0 1.0 1.0 1.0 1.0
1.0 1.0 1.0 1.0 1.0 1.0 1.0 1.0
1.0 1.0 1.0 1.0 1.0 1.0 1.0 1.0
1.0 1.0 1.0 1.0 1.0 1.0 1.0 1.0
1.0 1.0 1.0 1.0 1.0 1.0 1.0 1.0
1.0 1.0 1.0 1.0 1.0 1.0 1.0 1.0
1.0 1.0 1.0 1.0 1.0 1.0 1.0 1.0
1.0 1.0 1.0 1.0 1.0 1.0 1.0 1.0
1.0 1.0 1.0 1.0 1.0 1.0 1.0 1.0
1.0 1.0 1.0 1.0 1.0 1.0 1.0 1.0
1.0 1.0 1.0 1.0 1.0 1.0 1.0 1.0
1.0 1.0 1.0 1.0 1.0 1.0 1.0 1.0
1.0 1.0 1.0 1.0 1.0 1.0 1.0 1.0
1.0 1.0 1.0 1.0 1.0 1.0 1.0 1.0
1.0 1.0 1.0 1.0 1.0 1.0 1.0 1.0
1.0 1.0 1.0 1.0 1.0 1.0 1.0 1.0
1.0 1.0 1.0 1.0 1.0 1.0 1.0 1.0
1.0 1.0 1.0 1.0 1.0 1.0 1.0 1.0
1.0 1.0 1.0 1.0 1.0 1.0 1.0 1.0
1.0 1.0 1.0 1.0 1.0 1.0 1.0 1.0
1.0 1.0 1.0 1.0 1.0 1.0 1.0 1.0
1.0 1.0 1.0 1.0 1.0 1.0 1.0 1.0
1.0 1.0 1.0 1.0 1.0 1.0 1.0 1.0
1.0 1.0 1.0 1.0 1.0 1.0 1.0 1.0
1.0 1.0 1.0 1.0 1.0 1.0 1.0 1.0
